HandsRecognition/model/keypoint_classifier/keypoint_classifier.tflite (tflite, 6532 bytes, 6 tensors)

sequential/dense/BiasAdd/ReadVariableOp f4 [20]
000000 d2 b8 4b 3c a4 b7 20 3d 11 88 af bd 54 48 a5 3b
       0.012434201 0.039237633 -0.085708745 0.0050440226
000010 b7 26 e9 bd 5a 91 62 bd 18 0b 85 be e4 5f 19 3e
       -0.113843374 -0.0553144 -0.25985026 0.14977986
000020 8d bd 8c bd d6 c0 2c be 3d 13 c3 bd 08 b4 2d 3e
       -0.068720914 -0.16870436 -0.09525154 0.16963208
000030 ab 58 6b 3c 43 fb 36 3e 8d b0 96 3e 8f 21 87 3b
       0.014364402 0.17869286 0.29431573 0.0041238735
000040 6e 5a 70 3b 2f 9b 0b be 5a ff aa bd e7 f6 05 bd
       0.0036674994 -0.13633417 -0.08349486 -0.032706168

sequential/dense_2/BiasAdd/ReadVariableOp f4 [5]
000000 d5 b0 b6 be 43 28 33 bd 7d 5b fd 3e 1f a7 1a bd
       -0.35681787 -0.04373957 0.49483863 -0.037757035
000010 a2 93 18 3e
       0.14900067

sequential/dense_1/BiasAdd/ReadVariableOp f4 [10]
000000 f5 1f 15 3d c7 a4 23 3e 62 d5 a9 3c 18 15 59 3d
       0.03640743 0.15980826 0.020731632 0.052998632
000010 7d f5 ac 3e 86 52 50 bd c1 be bc 3e 53 08 e7 bd
       0.33781043 -0.05085995 0.36864284 -0.112808846
000020 1d 18 87 3e d3 7b 1f bd
       0.26385584 -0.038936447

sequential/dense/MatMul f4 [20, 42]
000000 28 52 34 3e b4 c8 b6 bd 54 f2 a8 be c5 00 8e bd
       0.17609465 -0.08925 -0.32997382 -0.069337405
000010 9d 5e 28 3e b9 09 2e 3e cf 5d ae 3e 76 30 8e 3e
       0.16442342 0.16995896 0.34055945 0.27771348
000020 37 bb 74 3e f5 bd de bc bd d0 13 be a1 d4 50 3e
       0.23899542 -0.027190188 -0.14435096 0.20393611
000030 98 6f e7 3e 9d 84 d1 bd 33 f7 0a bd 62 e7 90 3e
       0.45202327 -0.10230372 -0.033927154 0.2830153
000040 35 ae 12 3e dc f2 e1 3e 8a 0c e2 3d e7 7c 67 be
       0.14324267 0.441306 0.11037548 -0.2260624
000050 39 b5 30 3e 1d a9 cc 3d cf 38 43 3e db 6f 50 3d
       0.17256631 0.09993193 0.1906464 0.050887924
000060 b8 6a 5c 3e 08 aa 79 3e f4 77 8b 3e 15 2c 93 be
       0.21525085 0.24381268 0.27239954 -0.2874457
000070 56 29 0d 3f 95 a3 ed bd cb fd ae 3e b5 10 6c 3e
       0.551412 -0.116034664 0.34178004 0.23053248
000080 22 be ac bd 1a 1b 9c 3e 50 9f fa 3e 7f 48 21 be
       -0.084347025 0.30489427 0.4894967 -0.15750311
000090 3d 9d fe 3e 5c eb c8 bd 7f 2b 2c 3e d0 a3 5d 3c
       0.49729338 -0.09810516 0.16813467 0.0135278255
0000a0 b9 23 7c 3e 34 1c 98 3c 5c ae 6b be 60 e2 e3 3d
       0.24623002 0.018568136 -0.23015732 0.11127162
0000b0 63 f6 1c be 48 c3 4d be 4e a7 0a be f6 ea b0 be
       -0.15328364 -0.20094025 -0.13540384 -0.3455426
0000c0 e8 f8 6b bd 7e 83 00 be f1 01 dd 3d 09 e6 93 be
       -0.057610422 -0.1255016 0.10791386 -0.2888644
0000d0 56 22 25 3e 14 db db be c4 64 13 3e 2b b8 38 be
       0.1612638 -0.4294058 0.14393908 -0.18039005
0000e0 71 e5 19 3e b9 75 ab 3d 4a 53 2d be 46 0a 67 3e
       0.15028931 0.08372063 -0.16926304 0.22562513
0000f0 2b e2 69 be 5e 42 ce bd 92 db d9 3d 0d 8a 20 be
       -0.22840182 -0.10071252 0.10637583 -0.15677662
000100 4f 3d 1e 3e 0d d5 a6 3e 5a bf bd be 9a df 24 3e
       0.15453075 0.3258442 -0.37060052 0.16100922
000110 fd d8 39 bd d6 e1 c4 be ca da c6 3e 8b 7b 43 3c
       -0.04537295 -0.3845355 0.38838798 0.01193131
000120 d7 fd bd 3d 48 5c 0e 3e 64 36 18 be 0b a4 fa 3c
       0.09276932 0.1390239 -0.14864498 0.0305958
000130 e4 e5 57 3e 80 12 a2 bc 56 ca 02 3f 01 e5 25 3e
       0.2108379 -0.019784212 0.5108999 0.1620064
000140 ae 1f 60 bd bc 66 b2 3e 73 e5 66 be 7d 7b 34 3e
       -0.054717712 0.34844005 -0.22548465 0.17625232
000150 28 ac f8 bd 78 c5 8e be 83 4a ec 3d d9 8a 04 bc
       -0.12142211 -0.27885032 0.115376495 -0.0080897445
000160 a4 1f fc bd 54 6d 43 bd b3 d2 76 3d 09 a4 9a 3e
       -0.123107225 -0.047711685 0.060259532 0.30203274
000170 3d 05 98 bd 95 42 1e be 63 04 2f 3e 82 ec 58 be
       -0.07422874 -0.15455087 0.17091517 -0.2118397
000180 d5 a8 db 3d b8 5c e7 3d fd 48 92 be 78 a8 3c 3d
       0.107255615 0.112969816 -0.2857131 0.0460591
000190 10 ca 13 be 7d 48 6e 3e f4 07 a2 be 09 d1 df 3d
       -0.1443255 0.2326984 -0.31646693 0.10928542
0001a0 16 af b0 be 27 38 0f be 81 1e 37 bc e2 dc 71 3e
       -0.3450858 -0.13986264 -0.011176706 0.23619416
0001b0 3b de b3 bd f0 53 04 be 1f c0 85 3d cf d1 35 be
       -0.087826215 -0.12922645 0.06530785 -0.17755817
0001c0 26 16 e6 bd 04 a9 80 3e 6a 37 24 be b8 f8 62 3d
       -0.11234693 0.2512895 -0.16036764 0.055412978
0001d0 c2 b3 87 be e9 d0 c8 3d fb 56 f4 3d df d0 25 bd
       -0.26504332 0.098054715 0.11930653 -0.040482398
0001e0 e0 60 1c 3e db 17 4d 3d 78 7f 74 3d a6 e3 9e 3c
       0.1527133 0.05007158 0.059691876 0.01939566
0001f0 95 66 b5 bc d3 86 57 be 3c 21 90 3d 80 7b e4 3d
       -0.022143641 -0.21047525 0.07037589 0.11156368
000200 04 ae 8b be e6 ed 68 3c 60 fc 65 bd 14 3a 79 3e
       -0.272812 0.014216876 -0.056148887 0.24338561
000210 fc a1 f1 be 1a 2c 11 3e f2 49 cb be f8 32 3c bd
       -0.47193897 0.1417698 -0.39704853 -0.045947045
000220 58 58 93 3e 34 9a f1 bc a1 92 99 be 8f a8 8b bd
       0.28778338 -0.029492475 -0.2999468 -0.068192594
000230 9e 69 a3 be d2 77 4e bd 67 32 37 be 45 27 d3 bd
       -0.31916517 -0.05040724 -0.1789032 -0.103102244
000240 a5 08 14 bd 14 c8 6c 3e 87 e8 4d be cc a9 d2 bc
       -0.036141057 0.23123199 -0.20108233 -0.025715731
000250 dc 85 2a 3e 90 8f ec bd dd 67 d8 bd d8 81 06 be
       0.16652626 -0.1155082 -0.10566685 -0.13135469
000260 7e f3 ea 3d ae d0 c1 3d 76 0b 5c 3e d3 37 0d be
       0.11472224 0.094636306 0.21488747 -0.13790826
000270 81 e9 0d 3e 97 3c 45 3e 63 02 d7 3e 79 88 bd 3d
       0.13858606 0.19261394 0.41994008 0.09254546
000280 a7 7a 64 be 5c a2 a0 3e 65 2d b7 3e 45 e4 8b 3e
       -0.22312413 0.3137387 0.3577682 0.27322593
000290 33 c9 95 3e b4 ba 01 be 4e 6c cc 3e ce a5 6e 3d
       0.29255065 -0.12668878 0.3992638 0.058263592
0002a0 f4 6e 70 be 4c 28 2f 3e 5d 45 63 be 09 d7 90 3e
       -0.23479825 0.17105216 -0.22194429 0.2828906
0002b0 c0 58 59 3c dc cd 0c 3f cb c1 a9 3d d0 ac b5 3e
       0.013265789 0.55001616 0.08288916 0.35483408
0002c0 25 7a d9 3c 2e 8e ba 3e 65 74 7b 3c bb 51 19 3e
       0.0265475 0.364366 0.015347575 0.14972584
0002d0 c0 40 cd bd 9d 25 5c 3d 93 70 1d be 11 dd b2 bd
       -0.10022116 0.05374681 -0.15374975 -0.08733571
0002e0 a2 16 8d 3e d0 7a a4 bd 99 26 09 be 37 eb 69 3d
       0.2755633 -0.08031237 -0.1339363 0.057109084
0002f0 74 a7 77 be d7 3a 15 be 05 54 ca 3d ff 0d 6d be
       -0.24184972 -0.14573227 0.09879307 -0.2314987
000300 68 d8 8c 3e d6 12 81 be 17 c0 12 bd ef 8b fb 3d
       0.27508855 -0.25209683 -0.035827722 0.122825496
000310 17 cb a1 bd 91 76 46 be c0 05 b1 bd a8 47 d1 be
       -0.079000644 -0.19381167 -0.08643675 -0.40874982
000320 51 53 b1 3e 01 91 10 bf e4 7f 5b 3e ea 0b 3c 3e
       0.34633878 -0.5647126 0.21435505 0.1836392
000330 5c f7 a8 be ed df f1 3d aa c0 39 be b5 93 f2 bd
       -0.3300122 0.118102886 -0.18139902 -0.11844579
000340 b4 3a 05 be 0a 32 65 bc 18 49 1c 3d c8 70 8d be
       -0.13010675 -0.013988981 0.038155645 -0.27625108
000350 d6 76 6b 3e 5e 6a 30 3d eb df 22 3e 01 83 65 3d
       0.22994551 0.04307019 0.1590573 0.05603314
000360 27 4f a8 3e 67 85 05 bf 66 6b 8f bd 9d 5b 8a be
       0.32872888 -0.5215668 -0.070029065 -0.2702302
000370 f4 53 47 3e 9e 0e 0b bb d8 54 44 3d 30 8a 56 bb
       0.1946562 -0.002121843 0.047932476 -0.0032736175
000380 ad f7 95 3d 1d 61 bf 3d 38 a7 34 3e 79 b8 d0 3e
       0.07322631 0.09344695 0.17641914 0.4076574
000390 8a 54 56 3d a6 90 8d be 27 f3 91 3e e8 a7 87 be
       0.052326716 -0.2764942 0.28505823 -0.2649529
0003a0 eb aa 4f be 5b 8b 9b bc 50 2f 53 be 53 01 62 be
       -0.20280044 -0.018987348 -0.20623517 -0.22070818
0003b0 0b 12 b1 3d b9 48 22 be d8 c5 66 be c5 ef 88 be
       0.086460195 -0.15848054 -0.22536409 -0.2674543
0003c0 81 2f b8 bd 98 35 5e 3d 44 97 6b 3d 2b 37 75 be
       -0.08993436 0.05425033 0.057517305 -0.23946826
0003d0 e5 6f 7b be 78 80 e1 be 30 95 7a be ba d0 07 3d
       -0.24554403 -0.44043326 -0.24470973 0.03315804
0003e0 c6 bd 68 be 7d 37 0d 3e dd 96 a1 be 39 e2 9e be
       -0.22728643 0.13790698 -0.31560412 -0.3103197
0003f0 50 dc bd 3d 5e 80 4b be d0 c6 83 3e 18 a9 c0 bd
       0.09270537 -0.19873187 0.2573762 -0.09407252

sequential/dense_1/MatMul f4 [10, 20]
000000 11 c5 c1 3e 21 68 e1 3e 3c 8d c5 bd 5d e5 ce bd
       0.37845662 0.44024757 -0.09646079 -0.10102341
000010 60 9e 55 be 76 c3 05 3e bf 90 54 bd 91 6c 37 3e
       -0.20861197 0.13062844 -0.051895853 0.17912509
000020 82 0c e3 3e 4f 72 9d bd 07 43 a4 be 5f 73 12 3f
       0.4434548 -0.07687818 -0.32082388 0.5720729
000030 ac 5b 3f bc 9d aa ad be ef 76 33 3f 9d e7 97 be
       -0.011679571 -0.3391923 0.70103353 -0.29668894
000040 e7 df 65 3e d2 28 3e be ea 7d 09 be 48 43 c1 be
       0.22448693 -0.18570259 -0.13426939 -0.37746644
000050 68 71 62 be f0 6d 53 be c9 1f 9c be 6c 8d 30 3f
       -0.22113574 -0.20647407 -0.30493 0.6896579
000060 7d 07 f5 3e 87 6e 7b 3e 66 6c e1 be 53 a3 06 3e
       0.47857276 0.24553882 -0.44028014 0.13148241
000070 ed fb f5 be 4a 5a c6 3e fa 26 a5 3e 6c 88 b4 be
       -0.48043767 0.3874076 0.322563 -0.35260332
000080 52 60 c0 3e 3f 12 8c 3e e6 8d b6 3c 6d b0 eb be
       0.37573487 0.2735767 0.02228446 -0.4603304
000090 32 e1 38 3e 6a b6 a3 be 05 60 bf bd d3 04 b0 be
       0.18054655 -0.31975108 -0.09344486 -0.3437868
0000a0 4e 86 81 be 38 4e fd bc b3 44 1e 3e 75 fb a6 3e
       -0.2529778 -0.030921087 0.15455894 0.3261372
0000b0 f6 1a 78 be 03 7d 4e be 52 f5 97 be 95 5a 4c be
       -0.24229035 -0.20164876 -0.29679352 -0.1995643
0000c0 1a 18 77 3e c0 fb 8c 3e 44 03 f6 3e 15 3d 18 be
       0.24130288 0.2753582 0.48049366 -0.14867051
0000d0 b3 83 e5 bd 2c cf f8 3e 02 08 94 be bf fb 93 be
       -0.1120676 0.4859556 -0.2891236 -0.28903005
0000e0 b3 e2 82 3e c4 53 f1 bd 4d d3 a7 be b8 a5 82 3d
       0.25563583 -0.11783555 -0.32778397 0.063792646
0000f0 36 68 34 be db 28 c0 be 00 22 bd 3e dc d2 b9 bd
       -0.17617878 -0.3753117 0.36940002 -0.09073421
000100 4e 4b 1c 3f bd 6a 73 3a 51 66 53 3e 06 67 cb be
       0.61052406 0.00092856196 0.206445 -0.39727038
000110 c2 59 91 3e 15 c4 66 be 1d 0a 43 3e 1d ed ab 3d
       0.28388792 -0.22535737 0.19046827 0.08394835
000120 73 13 2a 3e eb 3f f9 bc 32 d6 bf be b9 07 f5 3d
       0.16608982 -0.030425986 -0.37468106 0.119643636
000130 8b c3 77 bc 7a 61 b6 3e d5 ed 5f 3e ce 62 8f 3e
       -0.015122305 0.35621244 0.2186807 0.2800507
000140 5f 31 13 bc 68 2e d9 3e 4a fc 60 3d b4 8c 3d be
       -0.008983939 0.42418218 0.0549281 -0.18510705
000150 d4 b6 bf be f4 af 02 3f 72 41 aa be c1 c6 9a 3e
       -0.37444174 0.51049733 -0.33253056 0.30229762
000160 10 e2 7f be 8f 74 40 be f4 5d e4 bd b9 c5 01 bf
       -0.2498858 -0.18794464 -0.11150733 -0.50692326
000170 49 b7 fd bd e2 16 96 3e 74 92 37 be 2c 74 8a bc
       -0.123884745 0.29314333 -0.17926961 -0.016901098
000180 e5 a0 76 3e b6 70 85 3e 9f 70 b5 3e 3e 7b 1f be
       0.24084814 0.26062554 0.35437486 -0.15574357
000190 de 14 1d 3f 37 7b 7f 3e b9 c7 64 3c da fd 30 be
       0.61359966 0.24949346 0.013963633 -0.17284337
0001a0 36 89 01 3f 44 12 0d 3f 4b 91 89 3e d3 cd f8 be
       0.5059999 0.55105996 0.26868662 -0.4859453
0001b0 a2 d0 9b 3e 22 54 04 3f bb c2 0d 3f a0 d4 d7 be
       0.30432612 0.51690876 0.5537526 -0.42154408
0001c0 6e 47 b5 be 55 2e 29 be ec ea c7 be af 7e 6d be
       -0.3540606 -0.1652158 -0.3904642 -0.23192857
0001d0 66 44 5c be 65 1a b1 3e c7 c9 c0 be ad c5 ab be
       -0.21510467 0.3459045 -0.37653944 -0.33549252
0001e0 1b cd 14 bf ff 91 e5 be 6f 73 82 be 94 12 d1 3e
       -0.58125466 -0.4483795 -0.25478694 0.40834486
0001f0 9c 6d d5 3e f7 58 b1 3e 3d 56 9e be 47 4b 4d 3c
       0.41685188 0.34638187 -0.3092517 0.012530155
000200 3d ba 92 be 14 8a 50 bd ce 22 2a 3e fc 09 51 be
       -0.28657714 -0.05091293 0.1661484 -0.20413965
000210 ba d7 aa bc 27 5d ff 3e 37 49 57 be 83 4c 98 be
       -0.02085482 0.49875757 -0.21024023 -0.29745874
000220 34 b4 d1 3c 98 f1 b3 be cc ca 92 be c6 73 c2 be
       0.025598623 -0.3514526 -0.28670347 -0.37978953
000230 c7 6e 9a be fc 1f 30 3b 38 bf 63 3e 44 10 98 3c
       -0.3016264 0.0026874533 0.22240913 0.018562444
000240 b9 48 f0 be e8 d8 ff 3e 1b ba 56 3d 00 0a d8 be
       -0.46930483 0.49970174 0.052423578 -0.4219513
000250 b9 88 cb be 63 ec 99 3e 0d 78 86 3e be 2f bf be
       -0.3975275 0.3006316 0.26263466 -0.37341112
000260 1e 13 76 be ea 03 7e be 85 25 92 be d8 40 60 bd
       -0.2403073 -0.2480618 -0.2854425 -0.05474934
000270 3f 89 87 3c d6 eb a6 bd 00 2b 9f 3e 52 6e b0 be
       0.016544936 -0.08150451 0.31087494 -0.34459168
000280 24 09 92 3e 8e 70 24 3f 61 81 be 3c 27 ae 51 be
       0.285226 0.64234245 0.023255052 -0.2047659
000290 83 1d 15 bf b7 6c c2 bd 49 73 2e bd 68 d6 25 3f
       -0.58248156 -0.09493392 -0.042590413 0.6478028
0002a0 f7 a4 75 3b 8f 79 bf be 8b e0 ae be 21 10 33 be
       0.003748236 -0.3739743 -0.34155688 -0.17486621
0002b0 d7 96 eb be ca 81 03 3f f2 46 a6 3c d3 34 cd 3d
       -0.4601352 0.5136992 0.020297501 0.10019841
0002c0 15 0a 6d 3e 25 e9 da 3e 13 48 d2 be c1 a3 a5 3e
       0.23148377 0.42756 -0.41070613 0.32351497
0002d0 c5 d1 f8 bd 47 d8 a9 3e 9c c7 dd bd c2 b9 63 3e
       -0.12149385 0.3317282 -0.10829088 0.2223883
0002e0 c5 53 97 3e 0e ff 79 bd e3 93 b3 be da 41 b7 3c
       0.295561 -0.061034255 -0.35073766 0.022370268
0002f0 ab bd 97 be 89 83 9d be ac 46 15 3f e7 ba cc be
       -0.29636893 -0.30764416 0.5831096 -0.39986345
000300 0f d1 a7 be b9 1d 65 3e fe aa 5d bd 89 94 d7 bd
       -0.32776687 0.2237462 -0.05411815 -0.10526378
000310 47 93 82 bc e6 06 5b be c9 4c 15 3e 15 71 0f 3e
       -0.015939368 -0.2138935 0.14580072 0.14007981

sequential/dense_2/MatMul f4 [5, 10]
000000 73 92 ca 3e 5b 04 7f 3d 5a d5 0a 3f bf a5 ac be
       0.39564857 0.062260013 0.542318 -0.33720204
000010 6f 65 0b 3f 3d be b5 3d a4 f5 f4 3c aa d6 87 3d
       0.5445165 0.08874176 0.029902287 0.06632741
000020 ea b9 55 3f c9 fc 00 3e 44 3b ef be ad 0f 6a 3f
       0.8348681 0.1259643 -0.46724904 0.9143017
000030 0f 71 59 3f c4 e5 3b be ba c6 dd be b8 c7 8d 3d
       0.8493814 -0.18349367 -0.4331568 0.06922859
000040 8d c9 49 3f a4 89 45 3c f3 d9 c0 be b0 1c 17 3f
       0.7882317 0.012056742 -0.37666282 0.5902815
000050 89 49 da be 68 74 22 bf 30 c3 4a bf f0 a5 36 3e
       -0.42634228 -0.6345887 -0.7920408 0.17836738
000060 1a 07 4c 3f 34 4b 2e bf 60 69 96 3e 1e 8e 3b bf
       0.79698336 -0.680835 0.2937727 -0.7326373
000070 21 d9 4b 3f d7 36 f2 be ab ea 1f 3f 64 4b 4f bf
       0.7962819 -0.47307464 0.6246745 -0.8097441
000080 14 a9 e4 bd d0 ce 74 39 09 ab 64 bf fa 64 45 3e
       -0.111650616 0.00023346697 -0.8932348 0.19276801
000090 51 79 42 be 99 3c fc bd 88 bd 54 bd 47 c9 61 be
       -0.18991591 -0.123162456 -0.051938564 -0.22049437
0000a0 5d c5 02 bf d8 a8 09 bf 47 39 31 be 13 36 2c 3f
       -0.510824 -0.5377326 -0.17307006 0.6727001
0000b0 00 a9 12 bf 9a d9 89 3f 96 23 00 bf 0d a6 90 be
       -0.57289124 1.0769532 -0.500543 -0.28251687
0000c0 03 51 1a bf d3 97 b6 be
       -0.60279864 -0.35662708
