HandsRecognition/model/keypoint_classifier/keypoint_classifier.tflite (tflite, 6596 bytes, 6 tensors)

sequential_6/dense_20/BiasAdd/ReadVariableOp f4 [5]
00000000: bfec ecbe ffec 04bf 2748 a73e e966 0a3f
00000010: f7be 343b
-0.46274373 -0.5192413 0.32672235 0.5406328 0.0027579644

sequential_6/dense_19/BiasAdd/ReadVariableOp f4 [10]
00000000: da0a e33e 7147 6bbd e544 a13e b647 30be
00000010: c09c 5abe 603f 463f 8fd2 133e 2d33 f53e
00000020: ec7d 3cbd c1e2 503e
0.44344217 -0.05744118 0.31497875 -0.17214856 -0.21348858 0.7744045 0.1443579 0.47890607
-0.046018526 0.20399

sequential_6/dense_18/BiasAdd/ReadVariableOp f4 [20]
00000000: 0125 e6be 04df f1bd fdab 00bf 8945 d4be
00000010: 2b2a d7be 1b66 a1be 37f9 80be 5f39 39be
00000020: bda4 6f3e 6ac4 40bc dfb3 fbbe 0f7a 663d
00000030: 0b94 0fbf f707 cebd c6b5 0bbf 8545 bebe
00000040: bede 833e df0d aebe fab8 123e fa3c 28bf
-0.44950107 -0.11810115 -0.50262433 -0.414593 -0.4202436 -0.31523213 -0.25190136 -0.18088292
0.23402686 -0.011765579 -0.49160668 0.056268748 -0.5608527 -0.10060113 -0.5457424 -0.37162414
0.25755876 -0.33994958 0.14328375 -0.6571804

sequential_6/dense_18/MatMul f4 [20, 42]
00000000: 3003 d7bc 687c 22bd d7c9 083e 14f4 563f
00000010: 3ab0 45be 0707 ca3e f0b0 b4bd 83b6 a83e
00000020: bce7 49be fad2 af3e 75ae 9cbe 28e8 023e
00000030: 8035 69be 8ec9 d73d 259b 4fbe 609a 873d
00000040: 3875 f7bd c8ea e53d 782c 1fbe eddb 2e3d
00000050: d970 b3be 2f4d debc 6fb6 b2be b023 9d3c
00000060: 6755 c1be d023 823d b665 d2bd 578d cabd
00000070: 5c8e d3bc bd71 fabd 05e6 283e 83c3 a1be
00000080: dbc2 d4bd abda 53be 9982 993e d431 14bd
00000090: 2288 793e da14 fabd 2c2d 103f 4752 2abe
000000a0: f1a0 a03e d39d 33be b086 18bd 98a8 7c3e
000000b0: 1128 213c 941f c4bc 645b 4cbd de21 d23c
000000c0: f3a7 44bd db18 553d 0e16 7fbb 4881 a53d
000000d0: 6cf4 583d fb91 483d ddce 973c 8da6 bc3c
000000e0: 8d89 703b e36a a13c 18d0 6c3c ae43 cb3a
000000f0: 1936 efbc 397e be3d 29a4 a13c 3f69 573d
00000100: a1fd 773c 0ca0 513d 7a05 3a3d d1f1 7e3d
00000110: dd52 a3bc 57ac 293e a0f3 92bc f722 f33d
00000120: c881 85bd c9a0 873d 4524 febc 7bd5 c4bf
00000130: 6022 5a3b 471f 573e d20c 5ebb a43e 183e
00000140: 8b1c 72bc 8cb8 413e 04e6 bd3c 2865 2e3e
00000150: 1ba8 8bbe 72a9 c0bd a6b6 54be aea0 2e3d
00000160: db83 c9be b9ee a4be 019c 13be 642c f3be
00000170: 11a9 19be f37a 80be 7b95 c8bd 8ab8 ac3c
00000180: 10ad a9be 53d7 a73c 3627 013e 07de 873e
00000190: 40dc 913e 3149 943e 488a aebe ffb3 a83e
000001a0: 100b b8bd f438 193e e23e a43c 5b2c 373e
000001b0: 7974 243e 0848 013e d1ad 37be 90b1 a33e
000001c0: 2c58 c8bd 73fa 603d 2946 3ebe 1829 a4bc
000001d0: 447c ea3c 5316 a83d e94c 7abe c792 623e
000001e0: e703 20be b574 cfbe 9fa8 2cbe dc09 8bbc
000001f0: 5e27 f7bc 898b 50bc 30d8 983d 1a36 75be
00000200: fea7 db3d 336d 153f 5e12 c03e f9a0 ea3e
00000210: 16ef 633e 0fb8 e03e 5df2 073f 3c35 b13e
00000220: 8a8c b83d 3302 97bd 510a 023d d9d9 9cbd
00000230: e371 683d cdb3 f33c a0bf ac3d 097d 413c
00000240: aeb5 e33d b800 00be e87b c63d 1f5a 263d
00000250: 57c0 043c c1ee e13d 397b b5bc e04f d43d
00000260: 0a1a e2bd 9fd7 2f3d a3ec 5cbd 9831 b73c
00000270: a4ef fcbd 87a4 25bc 5188 53be 6a68 58bd
00000280: fcc3 97be a2da a9bd 71d5 59be 6368 43be
00000290: 3dcc b9be 1599 26bf 850c 0ebf ef8c f8be
000002a0: 7b12 8abe 88f2 c93d 062f dabe 3a99 123e
000002b0: 0bbf 0bbf 7afe 0e3f ad04 38bf 8bdf 1a3f
000002c0: e6d5 68bf 73bf b73e d69b d73d 86bc afbd
000002d0: f0b7 0e3e 4a04 dcbd c9ce 953d 347f 19bd
000002e0: a8d0 e23d c22b c73c a647 233e d422 62bb
000002f0: 7a8a 82bd c2ad 233d 440f b63d 5c5b 103d
00000300: 6f63 a13c 1265 6d3d 9dda 833e 432f 21bd
00000310: 6a8b 1f3d 02c6 f7bc 7f4d 5c3b fb9f 843c
00000320: e159 7e3d ad7a 2a3d 3190 bf3e 1210 f0bd
00000330: e0ff a73e 0ec4 b7bd 943e 043e 13ed cabe
00000340: d943 673e f1c3 ccbe 0acd d3bd d86c 85bd
00000350: 22ca 25bf 05d0 d2be fce4 18be 3444 7dbe
00000360: 28b4 88be 87f0 a8be 7134 0ebe d790 c4be
00000370: 4a6a 46be b1e0 943d b570 88be c917 f139
00000380: ccf0 083c 567a 483e a254 1c3e 346e 8c3e
00000390: 242f 32ba 0b17 883d 77fb 43be 2748 a2bd
000003a0: 0cb2 613e ee90 913e c606 c03e f445 8b3e
000003b0: 9ad8 4abe 346a 0cbd 4521 f7bd 6524 2dbc
000003c0: bf6c 0cbe 90b8 833e 8b9f 173e 855f 7e3e
000003d0: d408 b1be 705b 8ebe 8b8d a5be ae13 12be
000003e0: ed4d b9be 0292 bc3d 4d83 66be d98e ba3e
000003f0: 28d3 9e3d 60f9 143e c5ee 27bf d18b 043e
-0.026246637 -0.039669424 0.13358246 0.83966184 -0.19305506 0.39458486 -0.08822811 0.32951745
-0.19717306 0.3434065 -0.3060185 0.12783873 -0.22774315 0.105364904 -0.20274027 0.066212416
-0.120829046 0.112264216 -0.15544307 0.042690206 -0.35047033 -0.027136413 -0.3490481 0.019182056
-0.3776047 0.06354487 -0.10273306 -0.0989024 -0.025824718 -0.12228725 0.16493995 -0.31594476
-0.10388728 -0.20688884 0.2998245 -0.036180332 0.24368337 -0.12211008 0.56318927 -0.16632949
0.3137279 -0.17540674 -0.037237823 0.24673688 0.009836213 -0.023940839 -0.049891844 0.025650915
-0.04801173 0.052025657 -0.0038923058 0.08081299 0.052967474 0.048967343 0.018531257 0.023028636
0.003670308 0.019704288 0.01445391 0.0015507841 -0.0292006 0.09301419 0.019731598 0.052590605
0.015136153 0.051178023 0.04541538 0.062242333 -0.019936973 0.16569649 -0.017938435 0.118719034
-0.065188944 0.06622464 -0.031023154 -1.5377649 0.003328465 0.21008025 -0.0033882153 0.14867646
-0.014777313 0.18918055 0.023180969 0.17030776 -0.27276692 -0.09407319 -0.207728 0.042633705
-0.3935841 -0.3221338 -0.1441498 -0.47494805 -0.150059 -0.25093803 -0.09794136 0.021084089
-0.3313985 0.020488417 0.12612614 0.2653658 0.2848835 0.2896209 -0.34089875 0.32949826
-0.08986485 0.14963132 0.020049516 0.17888014 0.16060056 0.12625134 -0.179374 0.31971407
-0.097824425 0.054926347 -0.18581451 -0.020039126 0.028623708 0.08207383 -0.24443401 0.22126304
-0.15626489 -0.40518728 -0.16861199 -0.016972475 -0.030170139 -0.01272858 0.074631095 -0.2394642
0.10725401 0.5836975 0.37514013 0.45825937 0.22259173 0.43890426 0.5310419 0.34610927
0.09011181 -0.07373466 0.03174812 -0.07658739 0.056749236 0.029748822 0.08434987 0.011809596
0.11118637 -0.12500274 0.09691602 0.04061329 0.008102498 0.11031867 -0.022153484 0.103667974
-0.11040123 0.04293024 -0.05393661 0.022362515 -0.12350395 -0.010110027 -0.2065747 -0.052833952
-0.29641712 -0.08293654 -0.21272828 -0.19082789 -0.36288634 -0.65077335 -0.55487853 -0.48545024
-0.26967224 0.09860712 -0.42614 0.14316264 -0.54588383 0.5585705 -0.71882135 0.6049735
-0.90951383 0.35888252 0.1052777 -0.0858088 0.13937354 -0.107430056 0.07314832 -0.037474826
0.11074954 0.024312858 0.159453 -0.0034505622 -0.063740686 0.03996063 0.088896304 0.035243377
0.019700734 0.057957716 0.25752726 -0.039351713 0.038951315 -0.030245785 0.0033615527 0.016189566
0.062097434 0.0416209 0.37414697 -0.11721815 0.32812405 -0.08972941 0.12914497 -0.39633998
0.22584476 -0.3999324 -0.103418425 -0.06514901 -0.64761555 -0.4117433 -0.149311 -0.24733049
-0.26699948 -0.32996008 -0.13887192 -0.38391754 -0.19376484 0.07269419 -0.2664849 0.00045984823
0.008358192 0.19577917 0.1526666 0.27427828 -0.00067971856 0.0664502 -0.19138895 -0.07923918
0.22040576 0.28430885 0.37505168 0.27201807 -0.1980919 -0.03428097 -0.120668925 -0.010567759
-0.13713358 0.25726748 0.14806955 0.24841125 -0.34577048 -0.27804136 -0.3233455 -0.1426532
-0.36192265 0.09207536 -0.22511025 0.3643711 0.077551186 0.14548254 -0.6559871 0.1294396

sequential_6/dense_19/MatMul f4 [10, 20]
00000000: 3306 a83b abf1 9fbe 9ba0 623e a5b6 913c
00000010: cbc5 353e 3ed3 9a3e c49f 02be 62cf 23bf
00000020: 9028 593f 9c17 15bf c638 343e c444 36bf
00000030: e988 f63e 846f 0f3f 6be0 d2bd eb87 adbd
00000040: df82 1b3f 5b5c cf3e 3f90 dabe f810 9b3e
00000050: a6ca 0e3f 4549 a7be fed8 d53e cfb1 943e
00000060: c4d1 853e d2f4 e23e e628 283f 2dd3 64be
00000070: e055 0bbe 6c06 973e 9822 17bf af98 b2be
00000080: bd46 6cbe f0de eb3e 08c2 21bd 538b a43e
00000090: 1471 753e e94e de3e c2d8 1abd 85f0 95bd
000000a0: 54ca 91be 224b 9abe c88d 753e e5f5 bb3e
000000b0: d804 583f cf6c 273f 28e5 d33e f97c 033e
000000c0: 5507 3e3f e629 1b3e 94af 1d3f b0dd 803e
000000d0: 4714 c3be ba9b 01be 3496 493f 8ad4 15be
000000e0: 74fa 843e 67c7 173f f549 85bd 328d 143f
000000f0: 2ed3 e93e 767d 3d3e ac84 babe 8f41 3b3f
00000100: 7eea 8e3f b89c c0be f487 79be 507b d73e
00000110: 7251 c8be ea3b 633e e9c1 1bbf 7ab6 463e
00000120: d2fe c43e 12de 0fbe 15d7 9b3e e097 b33e
00000130: fadd babe 84cc b6be 55df bdbd 1297 d63e
00000140: 8c74 953e c4e5 66bc c37b 8e3e 7e50 093f
00000150: 3b0b 8ebe ed92 febe fff1 923e ed86 24be
00000160: f642 b4bc 05e9 3c3e 1915 07bf cf9b cb3d
00000170: 4961 193e fcd5 983e f6f0 8c3f 18b6 59be
00000180: 6a79 fdbe fd5c 1b3f 95f7 823d aa37 b6be
00000190: 94f1 77be 0c93 94bd 1cb5 debe 08a6 04be
000001a0: 8792 20bf 00de 3abd a095 82be 27d1 8c3e
000001b0: 27c2 54bd 8eaf 3a3f d71a 21be 74a8 433f
000001c0: 8efe e9bd c0ba 3d3c af36 d4bd c361 1a3e
000001d0: 7f1e 4d3f bfe6 b73d 051e 573f f818 743d
000001e0: 5dd0 243f 8054 f63f 2cbe 713e 4946 213f
000001f0: cdaf 6f3d 064b 203d 7abc 99be 4028 8d3f
00000200: e456 fbbe c5a7 2d3f 0732 493e 2bc6 253f
00000210: e458 c93e e16a a7bd 4071 583f 720d 4d3f
00000220: df40 67be 1d6e 26be 5219 be3d d210 813e
00000230: 00b3 033e bf6f 26bf 7295 353f f697 463d
00000240: 01f3 3bbe 7010 243f 8f37 4d3f aa2e 34bc
00000250: eba6 99bd 34ce 053e 7105 493f f8e9 2dbe
00000260: 3529 123f 09d6 4c3f f150 c5bd 29e3 2b3f
00000270: 3dec 90be 5fa4 cc3e 5a1b 2fbf 038a 1d3f
00000280: 9a33 18bf 7892 7f3d 1d1d 233f efa8 583f
00000290: aed7 2a3e a628 0c3f e7a6 97bd af20 25bd
000002a0: d2a5 58bd 72db 1a3e 6a01 edbe ae9a 173d
000002b0: 37f3 343e 4fb6 a73e d8cb 6f3f 29b2 943e
000002c0: f622 aabe b056 92bd 87fd 77be a4f6 b93e
000002d0: d452 d83e 6116 923f ac2a 0f3e 075a 0abf
000002e0: 4842 e9bb f374 6a3e 5f46 ae3e b18c 893e
000002f0: 48cd 4f3f 9650 a2bd e32d 8f3d 0743 333e
00000300: 2f23 833e 5335 ab3e e908 3fbf 2ac5 083f
00000310: d74c 243f c322 44bd f761 0ebe 8ba1 42be
0.005127692 -0.31239066 0.22131579 0.017787287 0.17751233 0.3023929 -0.12756258 -0.63988316
0.8482752 -0.5823915 0.17599782 -0.7119868 0.4815133 0.56029534 -0.102967106 -0.0847319
0.6074657 0.4050015 -0.42688176 0.30286384 0.55777967 -0.32673088 0.41767114 0.29041907
0.261366 0.44327408 0.65687406 -0.22346182 -0.13606977 0.29497087 -0.5903716 -0.34882113
-0.2307386 0.46068525 -0.039491683 0.32137546 0.23968917 0.4341958 -0.037804373 -0.07321266
-0.28474677 -0.30135447 0.23979867 0.3671104 0.8438239 0.65400404 0.4138577 0.12840642
0.7422994 0.15152702 0.61596036 0.25169134 -0.38101408 -0.12657061 0.78744817 -0.14631858
0.2597233 0.5928864 -0.06508247 0.58027947 0.4566893 0.18504891 -0.36429346 0.7314691
1.1165311 -0.37619567 -0.24368268 0.42086267 -0.39124638 0.22190824 -0.6084276 0.19405547
0.38475662 -0.14049557 0.30437532 0.3507681 -0.3649748 -0.35702908 -0.09271113 0.41912133
0.2919048 -0.014092866 0.27828798 0.53638446 -0.27742943 -0.4972147 0.28700253 -0.16067095
-0.022004586 0.18448265 -0.5276657 0.099418275 0.14978518 0.29850757 1.1011035 -0.2126087
-0.49506694 0.60688764 0.06394879 -0.35589343 -0.24213248 -0.072546095 -0.4349755 -0.12953961
-0.62723583 -0.045621872 -0.2550478 0.2750332 -0.05194297 0.72924125 -0.15732895 0.76428914
-0.114255056 0.011580169 -0.103619926 0.15076356 0.8012466 0.08979558 0.8403018 0.059594125
0.6438044 1.9244537 0.23607701 0.6299787 0.058517266 0.039134048 -0.3002661 1.1027908
-0.4908973 0.6783412 0.1964799 0.64755505 0.3932563 -0.081746824 0.84547806 0.8009864
-0.2258334 -0.16252942 0.09282173 0.25208145 0.12861252 -0.6501426 0.7093116 0.048484765
-0.18354417 0.6408758 0.801629 -0.010997454 -0.0750254 0.13066941 0.7852393 -0.16983783
0.57094127 0.8001409 -0.09634579 0.67143494 -0.28305236 0.39969155 -0.6840111 0.61538714
-0.5945374 0.062395543 0.637163 0.8463277 0.16683838 0.54749525 -0.07404881 -0.040314373
-0.052892514 0.15122774 -0.4629014 0.03701275 0.17670904 0.32756278 0.93670416 0.29042175
-0.33229798 -0.071454406 -0.24217807 0.36320984 0.42250693 1.141308 0.13981122 -0.5404362
-0.007118497 0.22896175 0.34038064 0.26865152 0.8117261 -0.07925527 0.06991174 0.17506038
0.2561278 0.3343912 -0.7462297 0.5342585 0.6417975 -0.047884714 -0.13904558 -0.19006936

sequential_6/dense_20/MatMul f4 [5, 10]
00000000: 8a55 e6bd f86c 3f3f fffa d83e 13c3 84be
00000010: 0a02 293f f28a a5bf bd94 143e 99ad 713f
00000020: 948e 793f ff9f 4ebf d5d7 4bbf 9926 4c3e
00000030: 511d fc3d 6642 1b3f 1435 403f f75b 9cbe
00000040: adf5 4f3f 5376 acbf b022 2d3f 53e0 d2be
00000050: 1dbe 293f bebe 323f 19ab 623e 49f4 a0bf
00000060: 8dcd 4dbf 1c4c a9be d9aa eabf 873c 2d3e
00000070: 53e8 38bf e137 f63e b034 03bf 4571 2fbf
00000080: 56ee 323f 6c35 87bf cddd a0be 10f3 8c3f
00000090: 25e2 03bf 739d 64be 685e cfbd 2e7e 73bf
000000a0: 29e2 fabe 28e1 d23d 3f63 93bf 9572 16bf
000000b0: 2578 7dbe e22f 223f 1e9d 293f 5c8e a9be
000000c0: 445f 20bf 9235 ac3e
-0.11246784 0.7477565 0.42378995 -0.2593008 0.66018736 -1.2933028 0.14509864 0.94405514
0.9748318 -0.80712885 -0.7962621 0.19936599 0.12310279 0.6064819 0.7508099 -0.30538914
0.81234246 -1.347361 0.67631054 -0.4118677 0.66305715 0.698223 0.22135581 -1.257455
-0.8039177 -0.3306588 -1.8333389 0.1691762 -0.722295 0.48089507 -0.5125227 -0.6853221
0.6989492 -1.0563178 -0.3141922 1.1011677 -0.51516944 -0.22325687 -0.101254284 -0.9511441
-0.49000672 0.102968514 -1.1514663 -0.5876859 -0.24752863 0.63354313 0.66255367 -0.33116424
-0.62645364 0.3363462
