HandsRecognition/model/keypoint_classifier/keypoint_classifier.tflite (tflite, 6560 bytes, 6 tensors)

sequential_1/dense_5/BiasAdd/ReadVariableOp f4 [5]
-0.31201935 -0.2977847 0.4750338 -0.049285986 0.10314562
00000000: 00c1 9fbe 3c77 98be a137 f33e 1ae0 49bd
00000010: 033e d33d

sequential_1/dense_4/BiasAdd/ReadVariableOp f4 [10]
0.7234677 0.62388194 0.07818434 0.17681938 0.9222348 0.39453533 0.28353998 -0.052513726
0.011858364 0.28363326
00000000: 2e35 393f bab6 1f3f 1c1f a03d 2410 353e
00000010: 9417 6c3f 8900 ca3e 272c 913e a218 57bd
00000020: 9549 423c 6138 913e

sequential_1/dense_3/BiasAdd/ReadVariableOp f4 [20]
-0.32963488 -0.72448075 0.07200911 -0.71117544 -0.39519897 -0.72369504 -1.0682341 -0.77478987
-0.9611031 -0.36392352 -0.5511188 -0.48244327 -0.36156556 0.3220971 -0.4090759 -0.51843256
-0.34171113 -0.5711762 -0.56273377 -0.010145438
00000000: e7c5 a8be 9277 39bf 8379 933d 980f 36bf
00000010: 8557 cabe 1444 39bf e5bb 88bf a158 46bf
00000020: da0a 76bf 2f54 babe 1f16 0dbf ce02 f7be
00000030: 1f1f b9be e9e9 a43e 6572 d1be ffb7 04bf
00000040: c3f4 aebe 9a38 12bf 520f 10bf 0d39 26bc

sequential_1/dense_3/MatMul f4 [20, 42]
-0.14290607 0.011850655 0.24896558 -0.28471783 0.0039299936 -0.11011825 -0.021766508 -0.009110257
-0.038276803 0.026396219 -0.08110755 -0.014733972 -0.054761488 0.016529575 -0.01723281 0.028345304
0.018088821 0.034838792 0.00046148058 0.039056525 -0.00058671273 -0.043756597 0.07426083 -0.028567653
0.14606461 -1.2059929 -0.023695076 0.0722014 -0.02306578 0.14671181 -0.014629167 0.2918803
-0.02415573 0.106567465 -0.022988135 0.15763666 -0.0014846947 0.14107902 -0.0052546323 0.24660672
-0.028220944 0.30130798 0.117470264 -0.28639197 -0.8190436 -0.065223254 -0.51710206 -0.55846834
-0.27417952 -0.36805695 -0.17305784 -0.5338602 -0.362344 -0.30437097 -0.34208107 -0.11930693
-0.022632752 0.3197716 0.356957 0.21584724 -0.2596287 -0.24790767 -0.2910935 0.09168124
0.120959885 0.29977977 0.3837552 0.1531207 -0.21582635 -0.016010486 -0.35287887 -0.012677712
-0.12958248 0.25201687 0.22808073 0.12687182 -0.2804478 0.02833956 -0.35239825 -0.1065294
-0.2978291 0.210881 -0.07990964 0.2914074 0.29786497 0.20271432 0.06961012 0.4312107
0.049571764 0.2021327 0.040558018 0.22902939 0.030764248 0.11599291 0.059669252 0.08526815
0.043035153 -0.17825785 0.010361765 -0.55121416 -0.039091 -0.6763782 0.086671166 0.02030644
0.0663072 0.36501336 -0.100417726 0.35760155 -0.17206019 0.088115744 0.07129108 -0.07293747
0.030717885 0.30830657 -0.058252696 0.49652973 -0.096318975 0.256749 0.08789963 -0.20908834
0.053335685 0.070918545 0.041038826 0.305106 0.022598302 0.2439519 0.083016366 -0.07565653
0.10632766 0.66088957 0.218401 0.28710893 0.30535758 0.23213425 0.3339356 0.15150781
-0.002915959 -0.045934957 -0.029537963 -0.1471399 0.032397937 -0.02214251 0.09119728 -0.021393584
-0.024063002 -0.01182066 0.04387109 -0.02199904 0.032380033 0.034372825 0.06751858 0.069932915
-0.008704721 0.0026374734 -0.18074657 -0.023734657 -0.16044298 0.026492765 -0.05295505 0.07384218
-0.16598105 -0.0023322257 -0.2898053 -0.11480275 -0.3696726 -1.0099236 -0.408357 -0.08858592
0.23293275 -0.11795339 -0.08398723 -0.15938719 -0.055812247 -0.037627652 -0.032519568 0.023302386
-0.0051975055 0.037656423 0.0014344709 -0.025942633 0.068004735 0.017304352 0.025799386 0.028525667
0.005708055 0.027490534 -0.015218092 0.013386353 0.018652894 0.056380495 0.070920944 0.060523443
0.013093425 0.067080475 -0.010956498 0.028710598 0.016191356 0.08181412 0.031913057 0.12001916
0.010270014 -1.5268872 -0.028441343 0.05841533 -0.0006553542 0.09022081 -0.008635945 0.12143075
0.0023670958 0.15338615 0.031227708 0.1344792 -0.0053474577 0.22824566 0.14643079 0.1407449
0.35318518 0.22802716 0.5039773 0.16131516 0.042168632 -0.0863873 0.06388326 0.0006480095
0.016263451 0.05438034 0.04489375 0.03794049 -0.06700733 -0.1989221 0.06969609 0.008018295
0.03579009 0.05246299 0.085521325 0.06017465 -0.24199073 -0.255684 0.12015976 -0.07882375
-0.046043847 -0.04579624 -0.050880704 0.043092765 -0.38116828 -0.21491401 -0.24599235 -0.2510798
-0.46329328 -0.059056222 -0.43467447 -0.6468177 -0.2776275 0.18519476 0.26607975 -0.030745672
00000000: f855 12be 4029 423c d5f0 7e3e 89c6 91be
00000010: 2dc7 803b ad85 e1bd ad4f b2bc 3043 15bc
00000020: 23c8 1cbd e23c d83c b71b a6bd c266 71bc
00000030: 954d 60bd 0869 873c d22b 8dbc 6934 e83c
00000040: 022f 943c 1fb3 0e3d e0f2 f139 bcf9 1f3d
00000050: a0cd 19ba 1e3a 33bd 1016 983d b606 eabc
00000060: f691 153e fa5d 9abf 2d1c c2bc 54de 933d
00000070: 72f4 bcbc 9f3b 163e 2caf 6fbc 5671 953e
00000080: 3de2 c5bc 0b40 da3d 9d51 bcbc 816b 213e
00000090: 169a c2ba 0577 103e 0d2f acbb 7986 7c3e
000000a0: 9c2f e7bc 0a45 9a3e 4094 f03d f8a1 92be
000000b0: d7ac 51bf c593 85bd cd60 04bf c8f7 0ebf
000000c0: 4261 8cbe f671 bcbe 1336 31be 10ab 08bf
000000d0: 2785 b9be 83d6 9bbe 4025 afbe 3157 f4bd
000000e0: 5268 b9bc 1ab9 a33e 11c3 b63e 0f07 5d3e
000000f0: 0eee 84be 82db 7dbe 350a 95be 60c3 bb3d
00000100: d1b9 f73d bc7c 993e 907b c43e accb 1c3e
00000110: 9501 5dbe 6c28 83bc 8aac b4be 2eb6 4fbc
00000120: 45b1 04be 5b08 813e ff8d 693e b0ea 013e
00000130: db96 8fbe 5d28 e83c 8b6d b4be 162c dabd
00000140: 0e7d 98be 30f1 573e aaa7 a3bd 5a33 953e
00000150: c281 983e 5894 4f3e c08f 8e3d a6c7 dc3e
00000160: c30b 4b3d e0fb 4e3e 2a20 263d ae86 6a3e
00000170: 4e05 fc3c b18d ed3d bf67 743d 11a1 ae3d
00000180: a145 303d 3a89 36be 64c4 293c 5f1c 0dbf
00000190: e21d 20bd 1f27 2dbf a780 b13d b159 a63c
000001a0: 12cc 873d 08e3 ba3e cfa7 cdbd 8d17 b73e
000001b0: 8c30 30be 0776 b43d 0f01 923d 3e60 95bd
000001c0: 13a4 fb3c 5cda 9d3e 619a 6ebd 2539 fe3e
000001d0: e242 c5bd 9b74 833e b904 b43d 411b 56be
000001e0: 8576 5a3d be3d 913d 5418 283d db36 9c3e
000001f0: 1320 b93c 87ce 793e 7c04 aa3d d0f1 9abd
00000200: 51c2 d93d 0f30 293f 83a4 5f3e f1ff 923e
00000210: d457 9c3e 9ab4 6d3e 9bf9 aa3e dd24 1b3e
00000220: ad19 3fbb 4b26 3cbd 99f9 f1bc d8ab 16be
00000230: b3b3 043d 3664 b5bc a4c5 ba3d 9941 afbc
00000240: c61f c5bc 71ab 41bc 2cb2 333d 5537 b4bc
00000250: eda0 043d 85ca 0c3d 2e47 8a3d fd38 8f3d
00000260: 3f9e 0ebc 76d9 2c3b a115 39be 2f6f c2bc
00000270: 2a4b 24be 5b07 d93c 65e7 58bd 923a 973d
00000280: f0f6 29be 41d8 18bb 5c61 94be b41d ebbd
00000290: ba45 bdbe 2d45 81bf 2b14 d1be 896c b5bd
000002a0: ec85 6e3e 8c91 f1bd 7f01 acbd 6536 23be
000002b0: 629b 64bd 741f 1abd 3d33 05bd a5e4 be3c
000002c0: d64f aabb 9f3d 1a3d db04 bc3a a585 d4bc
000002d0: 1146 8b3d dbc1 8d3c 3c59 d33c a9ae e93c
000002e0: a30a bb3b d433 e13c 4e55 79bc 6f52 5b3c
000002f0: f4cd 983c 3cef 663d 003f 913d 6ee7 773d
00000300: ce85 563c 7d61 893d e282 33bc 7d32 eb3c
00000310: bca3 843c 298e a73d 44b7 023d 9bcc f53d
00000320: 9043 283c 0a71 c3bf d2fd e8bc ea44 6f3d
00000330: 13cc 2bba b0c5 b83d c77d 0dbc afb0 f83d
00000340: 4721 1b3b 4211 1d3e 40d1 ff3c eab4 093e
00000350: ba39 afbb 3bb9 693e f4f1 153e 6e1f 103e
00000360: b0d4 b43e f47f 693e a804 013f cd2f 253e
00000370: 04b9 2c3d d3eb b0bd 3ad5 823d 2edf 293a
00000380: ee3a 853c ebbd 5e3d 82e2 373d 7d67 1b3d
00000390: 243b 89bd 3cb2 4bbe d3bc 8e3d 2b5f 033c
000003a0: a198 123d 6fe3 563d ce25 af3d b279 763d
000003b0: 6bcc 77be 03e9 82be 5216 f63d 596e a1bd
000003c0: 7998 3cbd d794 3bbd 4968 50bd 0a82 303d
000003d0: 7d28 c3be 6b12 5cbe 6be5 7bbe 888d 80be
000003e0: c734 edbe f0e4 71bd a78d debe d895 25bf
000003f0: 3125 8ebe b2a3 3d3e 9b3b 883e 59de fbbc

sequential_1/dense_4/MatMul f4 [10, 20]
0.0018710331 0.6742888 -0.07007609 0.50776505 -0.457754 0.16180027 0.9214799 0.62005
0.6274023 -1.3009342 0.40402377 0.76932317 -1.362342 0.7230721 -0.5239591 -0.26011148
-1.5885494 0.18887207 0.38416925 -1.1085341 0.5950194 0.12685537 0.23987027 -0.41631535
-0.25158742 -0.12144841 -0.23555566 -1.0549024 0.38862777 0.61167574 0.12778775 0.1978002
0.96486765 0.15806405 0.1629419 0.042700436 0.7780637 -1.3944756 -0.82665354 0.06243768
0.2982227 -0.49001044 0.0948502 -0.08683125 1.2501249 -0.08012984 -0.39764932 0.32608378
0.042239886 0.30201462 -0.043165874 -0.31758565 0.43659672 -0.218747 0.80162585 1.2429084
0.19805288 0.021262696 0.15600714 0.2884454 1.0237296 -0.21732803 -0.02625651 0.75241303
1.0875322 0.37955055 -0.38474238 0.44601786 0.21964651 1.1939384 0.26357654 -0.42223218
1.2562008 0.008054558 1.1301242 0.38817737 1.3448089 0.9694551 -0.062258177 0.20121063
-0.340986 0.16239552 0.8280536 -0.45499822 -1.4926442 -0.3058687 -0.34644628 0.32175773
-0.18883082 -0.16618839 0.11466125 -0.20837046 -0.31475425 0.08939674 -0.66118383 -0.25513652
-0.13331284 -0.8639282 -0.012926848 0.89689 0.7818815 0.27368426 0.018349836 0.22310914
-0.90554905 -0.051158153 0.20682909 -0.9986775 0.047412522 0.57936734 -0.088514365 -0.093268394
0.95013845 0.20774043 0.028392475 -0.06306529 0.41015753 -0.7725546 -0.4626188 0.03304623
-0.1921064 0.14597198 0.18216859 -0.53239644 0.21682858 -0.49024713 0.30967507 -0.46716332
0.80369407 0.09278385 -0.14119294 0.05777636 -0.10145446 0.12706918 0.07557124 0.07599301
0.08612726 -0.8087377 -0.38169652 0.27675053 0.9929508 0.34870842 -0.06345405 0.50915396
0.3640851 0.9570354 0.76292026 0.30183074 0.329282 -0.2849266 0.2867766 0.47568753
0.13739955 0.094481796 -0.24369007 -0.124924675 0.3892705 0.40046778 0.072233476 -0.8825532
-0.06680288 -0.96945107 -0.112885214 1.4019529 -0.10550046 1.1239513 -0.64739287 1.3400736
-0.062685736 0.18041046 0.705139 0.39768317 0.12040112 0.094216734 0.114098646 0.24827576
0.11549731 1.7058142 0.8976269 0.17388652 -0.037780702 0.42698437 -0.43286514 -0.47938448
1.4487746 0.09528094 -0.5727272 0.2868009 0.64891887 -0.026451746 -0.14745088 -0.5455311
-0.18102083 -0.26091364 1.1041919 1.0862126 0.012809478 0.094345294 -0.4629728 -0.17020789
00000000: 743d f53a 319e 2c3f 0e84 8fbd e4fc 013f
00000010: bb5e eabe f8ae 253e 1be6 6b3f 99bb 1e3f
00000020: 709d 203f 0385 a6bf 34dc ce3e 5df2 443f
00000030: 3961 aebf 411b 393f 2f22 06bf 552d 85be
00000040: 9655 cbbf ae67 413e d5b1 c43e 72e4 8dbf
00000050: 3153 183f 60e6 013e 8da0 753e 4927 d5be
00000060: 11d0 80be f2b9 f8bd 8135 71be 0b07 87bf
00000070: 38fa c63e c896 1c3f cbda 023e 238c 4a3e
00000080: 9101 773f 8bdb 213e 3eda 263e a7e6 2e3d
00000090: 2f2f 473f 2d7e b2bf 919f 53bf a7be 7f3d
000000a0: a5b0 983e a6e2 fabe d240 c23d 95d4 b1bd
000000b0: 1804 a03f 1d1b a4bd b198 cbbe 74f4 a63e
000000c0: bb03 2d3d a9a1 9a3e b3ce 30bd 969a a2be
000000d0: 9b89 df3e 37ff 5fbe 5a37 4d3f 9f17 9f3f
000000e0: 60ce 4a3e 1b2f ae3c 56c0 1f3e 1eaf 933e
000000f0: 9209 833f 3d8b 5ebe e417 d7bc 249e 403f
00000100: 4134 8b3f 7354 c23e f4fc c4be 745c e43e
00000110: 04eb 603e f9d2 983f 81f3 863e d12e d8be
00000120: 30cb a03f 44f7 033c e9a7 903f 2fbf c63e
00000130: b322 ac3f 362e 783f 6e02 7fbd 290a 4e3e
00000140: b895 aebe 034b 263e 52fb 533f 87f5 e8be
00000150: f70e bfbf d29a 9cbe 6861 b1be 6ebd a43e
00000160: de5c 41be 4a2d 2abe 84d3 ea3d 115f 55be
00000170: 7827 a1be a315 b73d 5843 29bf 41a1 82be
00000180: 2983 08be 662a 5dbf 21cb 53bc 959a 653f
00000190: 6329 483f 5820 8c3e 6552 963c b976 643e
000001a0: 10d2 67bf 368b 51bd 01cb 533e 54a9 7fbf
000001b0: a233 423d 6b51 143f 0547 b5bd 8003 bfbd
000001c0: 463c 733f e8b9 543e 5697 e83c 6028 81bd
000001d0: 2b00 d23e 23c6 45bf 5fdc ecbe 7c5b 073d
000001e0: 8ab7 44be ae79 153e 678a 3a3e 224b 08bf
000001f0: 5008 5e3e ac01 fbbe bb8d 9e3e 0830 efbe
00000200: e5be 4d3f 7605 be3d e294 10be e8a6 6c3d
00000210: 5bc7 cfbd 6c1e 023e 18c5 9a3d 39a2 9b3d
00000220: 7d63 b03d 6f09 4fbf ba6d c3be 3fb2 8d3e
00000230: 0632 7e3f e989 b23e 32f4 81bd ea57 023f
00000240: 5d69 ba3e 4600 753f be4e 433f 8f89 9a3e
00000250: a697 a83e e6e1 91be 62d4 923e 518d f33e
00000260: 78b2 0c3e ac7f c13d e489 79be 82d8 ffbd
00000270: 774e c73e 1d0a cd3e 25ef 933d 02ef 61bf
00000280: f3cf 88bd f22d 78bf 5d30 e7bd 3173 b33f
00000290: a010 d8bd a3dd 8f3f 8abb 25bf 8887 ab3f
000002a0: 6161 80bd 85bd 383e fd83 343f 219d cb3e
000002b0: dd94 f63d b4f4 c03d 8dac e93d 003c 7e3e
000002c0: db89 ec3d 1f58 da3f e0ca 653f 4f0f 323e
000002d0: f0bf 1abd b29d da3e 80a0 ddbe e271 f5be
000002e0: 7271 b93f a722 c33d 409e 12bf 91d7 923e
000002f0: 8c1f 263f 55b1 d8bc 5dfd 16be eda7 0bbf
00000300: 865d 39be 7996 85be 2956 8d3f 0409 8b3f
00000310: d8de 513c 1b38 c13d c50a edbe fa4a 2ebe

sequential_1/dense_5/MatMul f4 [5, 10]
1.3650947 -0.6489992 -0.74640113 -0.60423374 -1.2147429 -0.83900195 0.067697875 1.0952102
0.70650876 0.6556552 -1.1659137 -0.6851955 0.49923322 1.1025127 -0.79107606 -0.8504355
-1.2646936 0.28691953 1.2354379 0.0130187925 0.5669459 -0.3509707 -0.90785354 -1.9592294
1.6599165 -1.2752273 0.52113605 -0.41887516 -0.058221657 -1.1395508 -0.7282418 0.8135069
-1.1175503 0.06292506 0.02248882 1.1285851 0.060490265 0.7543681 -0.13198352 -2.2404842
-1.1025265 0.50237286 0.6757483 0.4110231 -0.91663057 -0.030067207 0.13565914 0.15937129
-1.2570894 0.56762123
00000000: 6cbb ae3f d024 26bf 2514 3fbf 10af 1abf
00000010: b27c 9bbf d5c8 56bf 2fa5 8a3d d92f 8c3f
00000020: c2dd 343f 05d9 273f a93c 95bf f968 2fbf
00000030: 7f9b ff3e 231f 8d3f f683 4abf 24b6 59bf
00000040: 7be1 a1bf 1ee7 923e d422 9e3f c64c 553c
00000050: 5e23 113f 6eb2 b3be 1769 68bf 07c8 fabf
00000060: 2578 d43f a63a a3bf 2c69 053f ce76 d6be
00000070: d579 6ebd cddc 91bf 0e6e 3abf fd41 503f
00000080: e30b 8fbf dbde 803d 793a b83c 7a75 903f
00000090: a4c4 773d 451e 413f b026 07be 1864 0fc0
000000a0: 971f 8dbf 829b 003f d7fd 2c3f 9f71 d23e
000000b0: 4da8 6abf 814f f6bc 3bea 0a3e 3a32 233e
000000c0: 4ee8 a0bf a04f 113f
